…
##  Job Name : main
##  Nodelist : gpu2110
##      CPUs : 8
##  Mem/Node : 65536 MB
## Directory : /oscar/data/gk/qcao12/4Humphery/Project5_mixed_insult/new_data/heatmap/LNO_pad
##   Job Started : Wed Nov 13 10:08:41 AM EST 2024
###############################################################################
==========================================================================================
Layer (type:depth-idx)                   Output Shape              Param #
==========================================================================================
LNO                                      [1, 41, 41, 2]            --
├─Linear: 1-1                            [1, 41, 41, 32]           160
├─InstanceNorm2d: 1-2                    [1, 32, 41, 41]           --
├─PR2d: 1-3                              [1, 32, 41, 41]           81,920
├─InstanceNorm2d: 1-4                    [1, 32, 41, 41]           --
├─Conv2d: 1-5                            [1, 32, 41, 41]           1,056
├─InstanceNorm2d: 1-6                    [1, 32, 41, 41]           --
├─PR2d: 1-7                              [1, 32, 41, 41]           81,920
├─InstanceNorm2d: 1-8                    [1, 32, 41, 41]           --
├─Conv2d: 1-9                            [1, 32, 41, 41]           1,056
├─InstanceNorm2d: 1-10                   [1, 32, 41, 41]           --
├─PR2d: 1-11                             [1, 32, 41, 41]           81,920
├─InstanceNorm2d: 1-12                   [1, 32, 41, 41]           --
├─Conv2d: 1-13                           [1, 32, 41, 41]           1,056
├─InstanceNorm2d: 1-14                   [1, 32, 41, 41]           --
├─PR2d: 1-15                             [1, 32, 41, 41]           81,920
├─InstanceNorm2d: 1-16                   [1, 32, 41, 41]           --
├─Conv2d: 1-17                           [1, 32, 41, 41]           1,056
├─Linear: 1-18                           [1, 41, 41, 128]          4,224
├─Linear: 1-19                           [1, 41, 41, 2]            258
==========================================================================================
Total params: 336,546
Trainable params: 336,546
Non-trainable params: 0
Total mult-adds (M): 17.59
==========================================================================================
Input size (MB): 0.01
Forward/backward pass size (MB): 5.62
Params size (MB): 2.66
Estimated Total Size (MB): 8.29
==========================================================================================
…
